tf_verify/calzone_models/MNIST_ConvSmallPGD.onnx (onnx, 359460 bytes, 8 tensors)

conv1.weight f4 [16, 1, 4, 4]
0	0x3dcc57cf	0.09977686
1	0x3e53a3fb	0.20668022
2	0x3dadbd03	0.08483317
3	0x3e39c930	0.18143153
4	0xbddfbe4c	-0.10924968
5	0x3ed59eea	0.41722804
6	0x3e56feb5	0.209956
7	0x3cfb262d	0.030657852
8	0xbd39858e	-0.045293383
9	0x3eb406c9	0.35161427
10	0x3e587d85	0.21141632
11	0x3e04f9cd	0.12985916
12	0x3e9729fb	0.29524216
13	0x3de85ce1	0.1134584
14	0x3e58485a	0.2112135
15	0xbdab3c2f	-0.083610885
16	0xbe046ab2	-0.12931326
17	0xbd8ed0cb	-0.06973418
18	0xbd9671a9	-0.07345898
19	0x3e0777c6	0.13229284
20	0xbe6025a3	-0.21889357
21	0xbdd0ae49	-0.10189492
22	0xbda8f42f	-0.08249699
23	0x3d6dcc26	0.05805602
24	0xbda31d79	-0.07964606
25	0xbd88bb6d	-0.06676374
26	0x3e2c1491	0.1680472
27	0x3dddd9ed	0.10832582
28	0x3e28e18e	0.16492292
29	0x3e402d66	0.18767318
30	0xbe64f3ca	-0.22358623
31	0xbe3e6038	-0.18591392
32	0x3d83f2da	0.06442805
33	0xbd937761	-0.07200504
34	0x3e75b91f	0.239964
35	0xbe0c6e4a	-0.13713947
36	0x3c4cde7d	0.012504217
37	0x3df7fe74	0.1210908
38	0xbe38ba3c	-0.18039793
39	0x3e495ec0	0.1966505
40	0x3e6532fd	0.22382732
41	0xbdb1a709	-0.086744376
42	0xbe0c4320	-0.13697481
43	0xbdf6ccf8	-0.120508134
44	0xbd4a0181	-0.04931784
45	0xbc656d32	-0.014003085
46	0x3e6b0233	0.22950058
47	0xbdac731c	-0.08420393
48	0xbc769186	-0.015049344
49	0x3e292021	0.16516162
50	0x3e25507c	0.16143984
51	0x3d5e5f3e	0.05429005
52	0x3db324fb	0.08747288
53	0x3e0934cf	0.13399051
54	0xbbc352a9	-0.0059607816
55	0x3c1d6dcc	0.009608697
56	0x3e18d286	0.14924058
57	0xbe47853c	-0.19484419
58	0xbdab5237	-0.083652906
59	0x3e03c3be	0.12867638
60	0xbde15571	-0.11002625
61	0xbe37dc81	-0.1795521
62	0xbc91da1e	-0.017804202
63	0xbcebc182	-0.028778795
64	0xbd970e9f	-0.073758356
65	0x3eb761cf	0.3581681
66	0x3eed50c7	0.4635069
67	0x3e95143c	0.29117
68	0x3db7d765	0.0897663
69	0x3f000fdc	0.500242
70	0x3ed04518	0.40677714
71	0x3e4a7e48	0.19774735
72	0x3e23111b	0.15924494
73	0x3effbe59	0.4994991
74	0x3d3a8dc9	0.045545373
75	0xbe0bcfac	-0.1365344
76	0x3e1b74b8	0.15181243
77	0x3879b6d6	5.9536505e-05
78	0xbe18f9f3	-0.14939098
79	0xbcb7f496	-0.022455495
80	0xbe67f4d0	-0.22651982
81	0xbdb82f51	-0.089934
82	0xbe577a00	-0.21042633
83	0x3d3ab059	0.045578334
84	0xbd7849b9	-0.060617182
85	0xbe7daf96	-0.24774012
86	0x3e6b0121	0.2294965
87	0xbe02f1e9	-0.12787594
88	0xbe72145d	-0.2364058
89	0x3db1e26b	0.08685764
90	0x3e5df0f9	0.21673955
91	0x3e6c1625	0.23055322
92	0xbdc83102	-0.097749725
93	0x3e431f6a	0.19054952
94	0xbe207c97	-0.15672527
95	0xbe0bc00b	-0.13647477
96	0xbe4d322a	-0.20038667
97	0x3e1429a9	0.14469017
98	0x3d8d6cd1	0.06905521
99	0xbe2d6830	-0.16934276
100	0x3da13a48	0.078724444
101	0xbe0dd1bc	-0.13849539
102	0x3e11c174	0.14233953
103	0x3c828499	0.015932368
104	0x3d9aee84	0.075650245
105	0x3d919c76	0.07109921
106	0xbe29c747	-0.16579925
107	0x3e021af6	0.12705597
108	0xbda19e01	-0.07891465
109	0xbe409fa5	-0.188109
110	0xbd958a64	-0.073017865
111	0x3e5e1f15	0.21691544
112	0xbdd3d44a	-0.10343225
113	0x3e83742b	0.25674567
114	0x3e93f93d	0.2890109
115	0x3ea22c45	0.316744
116	0x3e479454	0.19490176
117	0x3ebebe51	0.37254575
118	0x3edb2208	0.427994
119	0x3e161213	0.14655332
120	0x3ef8b1a0	0.48573017
121	0x3e6f8d0c	0.23393649
122	0x3ebce275	0.36891523
123	0x3c146305	0.009056811
124	0x3e9e33dc	0.3089894
125	0x3eb21be0	0.34786892
126	0xbd566639	-0.05234358
127	0xbd013a1c	-0.031549558
128	0x3ce620a4	0.028091736
129	0x3e5321c6	0.20618352
130	0x3e8e410f	0.2778401
131	0x3e4f2784	0.20229918
132	0xbe1eb982	-0.15500453
133	0x3e9b5aef	0.30342814
134	0xbc614e82	-0.013751628
135	0x3eddbd3c	0.43308437
136	0x3d699b70	0.057033002
137	0x3ea23647	0.31682035
138	0x3eb5ebfd	0.35531607
139	0x3e84c57a	0.25931913
140	0xbe79660f	-0.24355339
141	0x3d9b4bda	0.07582827
142	0xbd91b239	-0.071140714
143	0x3e5dec48	0.21672165
144	0xbe490d1a	-0.19633904
145	0x3dc6063a	0.096691564
146	0x3c719f5f	0.01474747
147	0x3d5f7849	0.054558072
148	0xbe2f3177	-0.17108713
149	0xbd9a8f1a	-0.07546826
150	0x3e5b073f	0.21389483
151	0xbe0c4ad0	-0.13700414
152	0x3e27211b	0.16321222
153	0xbadbcf20	-0.0016770102
154	0xbe3d76ef	-0.18502401
155	0x3d093882	0.033501156
156	0xbca002bf	-0.01953256
157	0x3d2c4f55	0.042067844
158	0xbe139de3	-0.14415698
159	0xbd142492	-0.03616769
160	0xbca00c12	-0.019537006
161	0xbd5e0baa	-0.054210342
162	0x3e206ecb	0.15667264
163	0xbcce7b3b	-0.025205245
164	0xbe4e0748	-0.20119965
165	0x3d87172a	0.06596215
166	0x3d231687	0.039816406
167	0x3e654492	0.22389439
168	0xbe596017	-0.21228062
169	0xbe653374	-0.22382909
170	0x3d9c53fa	0.07633205
171	0x3da9afa0	0.08285451
172	0xbd9aa8b3	-0.07551708
173	0xbde88f6b	-0.1135548
174	0xbe48e958	-0.19620264
175	0x3dba1a9a	0.09087105
176	0x3d006aa4	0.0313517
177	0xbe5f7fc8	-0.21826088
178	0xbcd09d76	-0.025465708
179	0xbd893861	-0.067002065
180	0x3cb5f957	0.022213621
181	0xbd4b05fc	-0.049566254
182	0x3dae5d7e	0.08513926
183	0x3da86470	0.08222282
184	0xbe81d476	-0.25357407
185	0x3d33c832	0.043892093
186	0x3e665f2a	0.2249724
187	0xbdc1c412	-0.094612256
188	0xbdc1bb90	-0.09459603
189	0xbe51b11b	-0.20477717
190	0x3e7b1d5d	0.2452292
191	0x3e72063f	0.23635195
192	0x3e06d00d	0.13165303
193	0x3e38451c	0.17995113
194	0xbde214a6	-0.110390946
195	0xbe72336a	-0.23652425
196	0xbe6babd0	-0.2301476
197	0xbe5ddc7b	-0.21666138
198	0xbe47a8fd	-0.19498058
199	0xbca8919f	-0.02057725
200	0xbe2aa037	-0.1666268
201	0x3e2e5b71	0.1702707
202	0x3e287aaa	0.16453043
203	0xbda59215	-0.080845036
204	0x3c8cd96e	0.017193522
205	0xbdbcd739	-0.09220738
206	0x3e7e951e	0.24861571
207	0xbe6523c0	-0.22376919
208	0x3ca0017a	0.019531954
209	0xbe5bdb28	-0.2147032
210	0x3e4a6675	0.19765647
211	0x3e1a0691	0.15041567
212	0xbcff8224	-0.031189986
213	0xbcf8a0c2	-0.030350093
214	0x3ee074a7	0.43839
215	0x3e7af810	0.24508691
216	0x3b9a0ed5	0.004701475
217	0x3edf935f	0.43667123
218	0x3f08fcb3	0.5351059
219	0x3ecc344b	0.39883646
220	0x3eb87d12	0.3603292
221	0x3e873e26	0.26414603
222	0x3ef82261	0.4846373
223	0x3ca2ae7e	0.019858595
224	0x3e9b30b9	0.3031061
225	0x3e64b55e	0.22334811
226	0x3e4bc7fd	0.19900508
227	0xbd1ce7a2	-0.03830684
228	0x3d2690d5	0.040665466
229	0x3e87cf86	0.26525515
230	0x3d94aa5d	0.07259057
231	0x3da57e83	0.08080771
232	0xbd9f222d	-0.077701904
233	0x3e52a262	0.20569757
234	0xbe00275f	-0.12515019
235	0xbda57eb1	-0.08080805
236	0xbe3c8bbe	-0.18412682
237	0xbe47f585	-0.19527252
238	0xbd88dd13	-0.066827916
239	0xbe3d5b15	-0.18491776
240	0xbd695667	-0.056967165
241	0xbc777dbb	-0.01510566
242	0xbe3a4bef	-0.18193029
243	0xbd1f3f48	-0.03887871
244	0xbc063468	-0.008191206
245	0xbceaa0dd	-0.028641159
246	0xbc876aa0	-0.016530335
247	0x3e773b3f	0.24143694
248	0xbc9eabf5	-0.019369105
249	0x3e1f33d8	0.1554712
250	0x3e57ff58	0.210935
251	0x3d455ae4	0.048182383
252	0x3e837c02	0.25680548
253	0xbd8b7315	-0.068090595
254	0x3e6701ed	0.22559328
255	0x3e3650b7	0.17804228

conv1.bias f4 [16]
0	0xbe3311f6	-0.1748732
1	0xbe608fa3	-0.21929793
2	0xbdd43ef9	-0.103635736
3	0x3e4d64ff	0.20058058
4	0xbe653dec	-0.22386903
5	0xbe54e5b4	-0.2079075
6	0xbe040269	-0.12891544
7	0xbe8ad1f2	-0.271133
8	0xbe363b9b	-0.17796175
9	0xbe0268dd	-0.12735315
10	0xbbec79c1	-0.0072166626
11	0xbe09b5e3	-0.1344829
12	0xbe0c2c1d	-0.13688703
13	0xbe81b177	-0.25330707
14	0x3e587bba	0.21140948
15	0x3df66b66	0.120322034

conv2.weight f4 [32, 16, 4, 4]
0	0x3dc397da	0.09550448
1	0x3c7cbc8b	0.0154258115
2	0x3d1b8195	0.037965376
3	0xbc409606	-0.011754518
4	0x3d322828	0.043495327
5	0xbd38b2cf	-0.0450924
6	0xbb7f5628	-0.0038961265
7	0xbd293271	-0.04130787
8	0xbd4ab227	-0.049486306
9	0x3d2268ad	0.039650608
10	0xbcff034d	-0.031129504
11	0x3d84ca77	0.064839296
12	0xbc9ebb33	-0.019376373
13	0xbc01218e	-0.007881535
14	0xbc222df9	-0.009898656
15	0x3de14e57	0.1100127
16	0xba9c9bfd	-0.0011948344
17	0x3bb05a7d	0.005381881
18	0xbb62fb06	-0.0034634485
19	0x3d793cf5	0.06084915
20	0xbd2c2ec3	-0.042036783
21	0xbcacb265	-0.021081159
22	0xbc9d182c	-0.019176565
23	0xbc228944	-0.009920422
24	0xbcf8f84a	-0.030391831
25	0xbc5aa0ea	-0.013344029
26	0x3ca18e3a	0.01972114
27	0x3cd5197f	0.026013134
28	0xbb5c2bf2	-0.003359553
29	0xbcda177d	-0.026622528
30	0xbd1540e2	-0.03643883
31	0xba78daa8	-0.00094930315
32	0x3d345885	0.04402973
33	0xbc1980ad	-0.009369058
34	0x3cfe53f0	0.031045884
35	0xbd365c69	-0.044521723
36	0xbc2f8c78	-0.010714643
37	0xb8a2abff	-7.756799e-05
38	0x3caf86b7	0.021426542
39	0xbd3b7336	-0.04576417
40	0xbd446ffe	-0.047958367
41	0x3cd3842f	0.025819866
42	0xbd5030c0	-0.05082774
43	0x3d151a54	0.03640206
44	0x3d36549c	0.044514284
45	0x3d59951b	0.053120714
46	0x3bae1027	0.005311984
47	0xbcfd2c94	-0.030905046
48	0x3d73234b	0.05935983
49	0x3cd8f7ec	0.026485406
50	0x3b04ab5d	0.0020243742
51	0xbd447f88	-0.047973186
52	0x3cea3a49	0.028592246
53	0x3c7a443c	0.015275057
54	0x3c25ab21	0.010111601
55	0x3d3df9a1	0.046380643
56	0x3d0ff273	0.035143327
57	0x3c303300	0.010754347
58	0x3be347e2	0.0069360593
59	0xbc240016	-0.010009786
60	0xbcadf731	-0.021236034
61	0xbcc34776	-0.023837786
62	0xbd6062fa	-0.05478189
63	0x3c9229a4	0.017842121
64	0x3db664fc	0.0890598
65	0x3de60c3b	0.112328015
66	0x3c1408bd	0.0090352865
67	0x3db241aa	0.08703931
68	0x3d877bca	0.06615408
69	0x3b81e599	0.0039641378
70	0x3c0e0264	0.008667562
71	0x3cd2f2cb	0.025750538
72	0xbd85c493	-0.06531634
73	0xbd354d9b	-0.044263463
74	0x3cf13d69	0.029448228
75	0x3d269824	0.040672436
76	0xbcdbd466	-0.026834678
77	0xba276b09	-0.0006386494
78	0x3dc47b75	0.0959386
79	0x3de5a91e	0.11213897
80	0xbcf75322	-0.030191008
81	0x3d532e8e	0.05155807
82	0xbcc322a7	-0.023820234
83	0xbd2e34a9	-0.04253069
84	0x3d6df1db	0.05809198
85	0xbd1004c8	-0.03516081
86	0x3b7dded8	0.0038737562
87	0xbcbe566e	-0.023234572
88	0xbc52a6ba	-0.0128571335
89	0xbcbb2272	-0.022843573
90	0xbd0fb083	-0.035080444
91	0x3d068632	0.032842822
92	0xbcd40dba	-0.025885452
93	0xbc04a299	-0.008095407
94	0x3c8cc194	0.017182149
95	0xbce9ccb2	-0.02853999
96	0xbd530658	-0.05151972
97	0x3d7082e5	0.05871858
98	0x3d1c2155	0.038117725
99	0xba176027	-0.00057745207
100	0x3b3b9d42	0.0028627669
101	0xbd5f1bd7	-0.05446991
102	0x3d15eae9	0.03660098
103	0x3d45ba58	0.048273414
104	0xbc4f316b	-0.0126460595
105	0x3d4eff98	0.050536722
106	0xbd1eed48	-0.038800508
107	0xbc9bfa29	-0.019040184
108	0x3d2b67e8	0.04184714
109	0xbce95f6b	-0.028487882
110	0x3c9f72e6	0.019463968
111	0x3ca1d5b5	0.019755224
112	0x3da7cbc9	0.08193166
113	0x3d122c7d	0.03568696
114	0x3dc130f7	0.094331674
115	0x3d818839	0.063248105
116	0x3cbaf462	0.022821609
117	0xbca7508d	-0.020424152
118	0xbd3f60c4	-0.046723142
119	0xbbac1b2c	-0.0052522626
120	0xbd4c5f39	-0.0498955
121	0xbca461df	-0.0200662
122	0xbcac39bf	-0.02102363
123	0xbd1c2e56	-0.038130127
124	0xbd6c2a5c	-0.057657585
125	0xbd09797b	-0.03356312
126	0x3ddfc7ab	0.109267555
127	0x3e079fb0	0.1324451
128	0x3d80bc67	0.06285935
129	0x3c96dc30	0.01841554
130	0xbc770d56	-0.015078863
131	0x3c413d4c	0.0117943995
132	0x3d3e410b	0.04644875
133	0x3d802d73	0.06258669
134	0x3d7d841b	0.061893564
135	0xbd464a08	-0.048410445
136	0xbd1c8a7d	-0.03821801
137	0xbd5ddf57	-0.05416807
138	0xbcfb86bc	-0.030703895
139	0xbd09038f	-0.03345066
140	0x3cc043af	0.023469774
141	0x3d98c956	0.07460277
142	0x3bc44391	0.0059895
143	0x3d2326c9	0.03983191
144	0x3cd0ee10	0.025504142
145	0x3b13f15b	0.002257428
146	0x3a860fbb	0.0010228077
147	0x3d4d55f4	0.0501308
148	0xbd11a985	-0.035562057
149	0xbcfba7fc	-0.03071975
150	0x3d1a2b1b	0.037638765
151	0xb9927218	-0.00027932297
152	0x3d469a2c	0.048486874
153	0x3d0f51fd	0.0349903
154	0x3c0a5b9a	0.008444691
155	0xbc4a6b1a	-0.012354637
156	0x3d7d4391	0.061832014
157	0x3d26b6b4	0.040701583
158	0x3d47c35b	0.04877029
159	0x3d772e18	0.060346693
160	0x3d69eb51	0.05710918
161	0xbd6d8110	-0.05798441
162	0xbd6f7529	-0.058461342
163	0xbcbb8e1e	-0.022894915
164	0x3d40a97b	0.04703663
165	0xbd62e063	-0.055389773
166	0xbc048740	-0.008088887
167	0x3c8d1971	0.017224045
168	0x3d34dc83	0.04415561
169	0x3d584951	0.052804295
170	0x3aad974d	0.0013243944
171	0xbd2e8872	-0.042610593
172	0xbc9cdb9a	-0.019147683
173	0xbc332961	-0.0109351585
174	0x3cdcab5b	0.026937177
175	0x3b89968e	0.0041988557
176	0xbc82428e	-0.015900876
177	0x3d06c52b	0.032902878
178	0xbd21aa2e	-0.039468937
179	0x3cb3775b	0.021907499
180	0xbd09c4e0	-0.03363502
181	0xbd821e8c	-0.063534826
182	0xbd0c376a	-0.034232534
183	0x3bd2fb6e	0.006438664
184	0x3b4a25f1	0.0030845369
185	0x3d218191	0.039430205
186	0x3d887bea	0.0666426
187	0xbd4eaefa	-0.05045984
188	0x3d592641	0.053014997
189	0x3ceb9c03	0.028760916
190	0x3cd7028f	0.026246337
191	0xbb2e2c05	-0.002657653
192	0xbcadc884	-0.021213777
193	0x3ca7efa0	0.020500004
194	0x3cc7e00a	0.024398822
195	0x3d01e0ca	0.031708516
196	0xbd1088bb	-0.035286646
197	0x3c28c2ae	0.0103003215
198	0xbd646604	-0.055761352
199	0xbab5582f	-0.0013835485
200	0x3d0afd4e	0.033932976
201	0x3d27b7f1	0.040946905
202	0xbc729941	-0.014807046
203	0xbc8a9b51	-0.016919764
204	0xbcfd4cbf	-0.030920384
205	0xbd651c47	-0.05593517
206	0x3ca084ee	0.019594636
207	0xbd12628b	-0.03573851
208	0x3de70ec2	0.11282112
209	0xbc6262c9	-0.0138174975
210	0x3d833f2c	0.064085335
211	0x3ca7f22e	0.020501222
212	0xbda22dd3	-0.079188965
213	0xbd5cb8e5	-0.053887267
214	0x3c86d228	0.016457632
215	0xbcd45cbc	-0.025923125
216	0x3bb1dc89	0.005427901
217	0xbd8929a6	-0.06697397
218	0x3cb9bbc8	0.022672549
219	0x3d227293	0.039660048
220	0x3cda1cf2	0.02662513
221	0x3da17159	0.078829475
222	0x3db57335	0.088598646
223	0x3dea56d3	0.11442342
224	0xba52c96f	-0.000804088
225	0xbd0943d9	-0.03351197
226	0x3d7663b9	0.060153697
227	0xbcbb66e3	-0.022876209
228	0x3d888c8d	0.06667433
229	0x3c3bbe34	0.011458922
230	0x3d7aa1cf	0.06118947
231	0x3d64ae2c	0.055830166
232	0xbb89b648	-0.004202638
233	0xbd6912f7	-0.056902852
234	0xbccc0db9	-0.024908887
235	0xbc74b835	-0.0149364965
236	0xbd6a8719	-0.057257745
237	0x3cac33c3	0.021020776
238	0xbccffb2f	-0.025388328
239	0x3cf166b1	0.029467912
240	0x3d10fabb	0.035395365
241	0x3d88a6fc	0.06672475
242	0xbc61c3c8	-0.013779588
243	0xbc507ad3	-0.012724596
244	0xbd93f98d	-0.072253324
245	0xbd67a9f4	-0.056558564
246	0x3c2c4063	0.010513398
247	0xbce443bd	-0.027864331
248	0xbda3421e	-0.07971595
249	0x3d0f4880	0.03498125
250	0xbc17c1d4	-0.009262521
251	0xbc959419	-0.018259095
252	0x3d3d00bd	0.046143282
253	0x3b8dc75b	0.0043267435
254	0x3cd3d271	0.025857182
255	0x3d9fa9ef	0.07796084

conv2.bias f4 [32]
0	0xbd4fc0eb	-0.05072109
1	0x3d61b50b	0.055104297
2	0xbd58fab4	-0.052973464
3	0xbbc2ad6a	-0.0059410827
4	0x3d2caed0	0.0421589
5	0xbce7a582	-0.028277162
6	0xbd5009ee	-0.05079072
7	0xbd05e6df	-0.03269088
8	0xbcd06739	-0.025439845
9	0xbc1e0740	-0.009645283
10	0xbcd9a8e2	-0.026569787
11	0xbd5ee0d0	-0.054413617
12	0xbbd3b53c	-0.006460814
13	0xbd741da4	-0.05959858
14	0x3c901840	0.017589688
15	0x3cc4c50b	0.024019739
16	0xbd892882	-0.066971794
17	0x3c28f0bd	0.010311303
18	0xbd1ea0b3	-0.038727473
19	0xbd12c898	-0.035835832
20	0x3d5ec922	0.054391034
21	0xbd1073fe	-0.03526687
22	0xbd96cd63	-0.07363393
23	0xbd1eb087	-0.03874257
24	0xbc3e8932	-0.01162939
25	0xbd386a3c	-0.045023188
26	0xbd5379c3	-0.051629793
27	0x3cb811b6	0.022469383
28	0x3cf9d4c7	0.030496968
29	0x3c39571e	0.011312274
30	0x3d377d80	0.04479742
31	0xbbb7538f	-0.0055946778

fc1.weight f4 [100, 800]
0	0xbca435e6	-0.020045232
1	0x3c427b64	0.011870239
2	0xbc27d8e3	-0.010244581
3	0x3cc97769	0.024593072
4	0xbbd7add5	-0.0065820017
5	0x3d0029de	0.031289928
6	0x3bf0b10a	0.0073453235
7	0x3c51b3dc	0.0127992295
8	0xbcb38dbf	-0.021918176
9	0xbc00ab59	-0.007853352
10	0x3d10fbd9	0.03539643
11	0x3c03f58c	0.008054148
12	0x3cba8565	0.022768686
13	0xbc266ef9	-0.010158294
14	0xbc1b4ae2	-0.009478303
15	0x3d1413ec	0.03615181
16	0x3d0070d1	0.03135759
17	0xbb17de91	-0.0023173431
18	0xbcaabab8	-0.020840988
19	0xbcbe785a	-0.023250747
20	0x3ac89e2b	0.0015305927
21	0xbcf3ea5c	-0.029774837
22	0xbcabd16d	-0.020973885
23	0xbbe56a91	-0.007001229
24	0x3c3df4fa	0.0115940515
25	0xbcf8182b	-0.030284962
26	0x3d078532	0.03308601
27	0x3a18ee26	0.0005833827
28	0xbce52c8b	-0.027975341
29	0x3ccf395f	0.025295911
30	0x3d0010fb	0.031266194
31	0xbc9c8ba9	-0.019109564
32	0x3c87f841	0.016597869
33	0x3c02c839	0.007982307
34	0x3ca739a1	0.020413222
35	0x3b0090f9	0.001961766
36	0x3bac8d2d	0.005265853
37	0xbc6d622a	-0.014488736
38	0x3cc70172	0.024292681
39	0x3cda5d86	0.026655924
40	0x3c6ac1bc	0.014328416
41	0x3bfc056f	0.0076910774
42	0xbcef7c2c	-0.029234014
43	0xba72df29	-0.0009264821
44	0xbc327309	-0.010891684
45	0xbc540f5e	-0.012943117
46	0xbc887654	-0.016657986
47	0xbc84feb0	-0.016234726
48	0x3bd43001	0.006475449
49	0xbc883f2d	-0.016631687
50	0xbce18a1c	-0.027531676
51	0xbcc5fad2	-0.024167452
52	0x3cc05932	0.023480032
53	0x3c1d4043	0.009597841
54	0x3c826f97	0.01592235
55	0xbc91418e	-0.017731454
56	0x3c8c9cfc	0.0171647
57	0x3c9fcfc1	0.019508244
58	0xbcfccaf0	-0.030858487
59	0xbd0ce3a9	-0.0343968
60	0x3cffd7b0	0.031230778
61	0x3cdadf96	0.026717942
62	0x3c40aa6d	0.011759383
63	0xbcf46f19	-0.029838132
64	0x3cfb1213	0.030648267
65	0x3cb559c7	0.022137536
66	0xbcbc0ee5	-0.022956321
67	0x3d0be24d	0.034151364
68	0xbce0f8c6	-0.027462374
69	0xbb203c1f	-0.0024449897
70	0x3c82a950	0.015949875
71	0x3ca69ecd	0.020339394
72	0x3b24b6d1	0.002513338
73	0xbccb86e7	-0.0248446
74	0x3cbb1bb9	0.022840368
75	0x3c68853f	0.014191925
76	0xbc4cfa10	-0.012510791
77	0x3d05466b	0.03253786
78	0xbd0bc724	-0.034125462
79	0xbc5c9cf6	-0.013465157
80	0xbc878c5c	-0.01654642
81	0xbabda0e5	-0.0014467506
82	0x3cacec0b	0.021108648
83	0xbc33db68	-0.0109776035
84	0x3c516056	0.012779316
85	0x3cb271ae	0.021782722
86	0x3bc454e1	0.0059915637
87	0x3c7a447f	0.01527512
88	0xbc13a3cf	-0.009011223
89	0x3c3ae415	0.011406918
90	0xbd096bb6	-0.033549987
91	0x3c01b87d	0.007917521
92	0x3c3e160b	0.011601935
93	0x3c6b9c6c	0.014380556
94	0xbbdc916a	-0.006731202
95	0x3c8452da	0.016152788
96	0x3c5195f0	0.012792096
97	0xbc41c76e	-0.011827333
98	0x3bfa71dc	0.0076429676
99	0x3c37383f	0.011182844
100	0x3d03b905	0.03215887
101	0xbcbd342c	-0.023096167
102	0x3bb39a82	0.0054810653
103	0x3c73a303	0.014870408
104	0xbcd6505f	-0.02616137
105	0x3cba538e	0.02274492
106	0x39ab6cbb	0.00032696672
107	0xbc40dad0	-0.011770919
108	0x3c8e5e6c	0.017379008
109	0x3a8f3296	0.001092511
110	0xbc985024	-0.018592902
111	0x3ba22f0f	0.0049494575
112	0xbca0f1c0	-0.019646525
113	0x3b8bb32c	0.0042633023
114	0xbbee3a36	-0.007270123
115	0xbc0c1ec9	-0.008552262
116	0xbc80ed61	-0.015738191
117	0xbc9b21ea	-0.01893707
118	0xbca009cd	-0.019535923
119	0x3b502638	0.0031761061
120	0x3c122504	0.008919958
121	0x3c377002	0.011196138
122	0x3bb34229	0.0054705334
123	0x3c8a3491	0.016870769
124	0x3c7feef5	0.015620937
125	0xbc53fd8c	-0.012938868
126	0x3b5c56cb	0.0033621069
127	0xbbfe0066	-0.0077515123
128	0x3b9fd8ec	0.004878154
129	0xbc2aec37	-0.010432295
130	0xbaf41891	-0.0018623044
131	0x3cf6d0a3	0.030128783
132	0x3cd9ee20	0.026602805
133	0x3cda6fa8	0.02666457
134	0x3c00858b	0.007844339
135	0x3c90c938	0.017674074
136	0x3b89dcd1	0.0042072316
137	0xbc9c6032	-0.019088838
138	0x3cf4031d	0.02978664
139	0x3cb93a65	0.022610852
140	0xbd01c10a	-0.031678237
141	0xbbd1c097	-0.0064011323
142	0xbc7b8ef5	-0.015353908
143	0x3bd5090d	0.006501323
144	0x3d025fc1	0.0318296
145	0x3d0a41d6	0.033754192
146	0xbc413fdb	-0.0117950095
147	0xbd0a294b	-0.033730786
148	0xbb1cbd3e	-0.0023916508
149	0xbd0b6120	-0.034028172
150	0xbcd72f99	-0.026267814
151	0x3d04ace6	0.03239145
152	0x3c0ae020	0.008476287
153	0xbcc40464	-0.023927875
154	0xbc9ac6a7	-0.018893553
155	0x3cb3be00	0.021941185
156	0x3c391605	0.011296754
157	0xbc8db174	-0.01729653
158	0xbc2f2e7f	-0.010692238
159	0x3b0430b1	0.0020170624
160	0x3b4924d3	0.0030692115
161	0x3d83482f	0.06410252
162	0xbd18059e	-0.037114732
163	0x3ce5b776	0.028041583
164	0x3cd33d7d	0.025786156
165	0xbc2d7c9f	-0.010588794
166	0xbc7f4c3a	-0.015582139
167	0x3b4bd0f2	0.0031099883
168	0x3c7ad8c5	0.015310471
169	0xbc823860	-0.015896022
170	0xbc84e6e4	-0.016223378
171	0x3c02731b	0.007962014
172	0xbbda7ad0	-0.0066674724
173	0xbb34b0e7	-0.0027571262
174	0x3d093e0e	0.033506446
175	0xbc9aad99	-0.018881606
176	0x3d0542f6	0.032534562
177	0xba17272b	-0.00057660294
178	0xbb03f614	-0.0020135688
179	0xbc1d2cb0	-0.009593174
180	0xbcf13293	-0.029443061
181	0x3bf2900b	0.007402425
182	0xbc380566	-0.011231756
183	0xbbef911c	-0.0073109996
184	0xbbda6436	-0.006664778
185	0xbcf0fba0	-0.02941686
186	0x3a972e57	0.0011534196
187	0x3c88bba2	0.016691033
188	0xbb31ef21	-0.0027150589
189	0x3cdd91d1	0.02704707
190	0xbca371e2	-0.019951764
191	0xbd044e59	-0.03230128
192	0xbcd11565	-0.025522897
193	0xbd085d86	-0.033292316
194	0xbc11cc54	-0.008898813
195	0xbccfb2d1	-0.025353821
196	0x3c9ee31e	0.019395407
197	0x3be49555	0.0069758096
198	0x3c4ef5d2	0.01263185
199	0x3ba0bc3d	0.0049052523
200	0x3c47725b	0.012173261
201	0xbc8b42fa	-0.01699971
202	0x3c9d6e62	0.019217674
203	0x3c1986cb	0.009370516
204	0x3c263015	0.0101433
205	0xbb3eb866	-0.002910161
206	0x3c23a710	0.009988561
207	0x3c85ff59	0.01635711
208	0x3d09e666	0.03366699
209	0x3d10715a	0.03526435
210	0x3d07a7c8	0.033118993
211	0xbc5c0792	-0.013429539
212	0xbc7e4d11	-0.015521304
213	0x3a3ae01b	0.0007128731
214	0x3ce34180	0.027741194
215	0xbb543100	-0.003237784
216	0xbd037c93	-0.032101225
217	0x3c0bf291	0.008541719
218	0x3c204667	0.00978241
219	0xbcb1e340	-0.021714807
220	0x3ce6127b	0.028084984
221	0x3b8f1b95	0.0043673017
222	0x3cde511a	0.027138282
223	0x3bec846e	0.0072179353
224	0xbbbff209	-0.0058577103
225	0xbc5347fc	-0.01289558
226	0x3bd2a81a	0.0064287307
227	0xbc3aa5f5	-0.011392106
228	0xba9dbba6	-0.0012034073
229	0xbc197954	-0.009367306
230	0xbca0828a	-0.019593496
231	0x3d0504f0	0.032475412
232	0xbc1d2e47	-0.009593553
233	0xbce2a59a	-0.027666856
234	0xbcc6e34a	-0.024278302
235	0xbcd3b40b	-0.025842687
236	0xbbdd76dc	-0.006758554
237	0xbb6b3d58	-0.0035894718
238	0x3c37c2ea	0.011215905
239	0x3c1d31b9	0.009594374
240	0xbc3d98ac	-0.011572044
241	0x3bfee06d	0.0077782185
242	0x3c88c15d	0.016693765
243	0xbcd3e1de	-0.025864538
244	0x3c078423	0.00827125
245	0xbc15df1c	-0.009147432
246	0xbc3eeae8	-0.011652686
247	0xbc22ad51	-0.009929017
248	0xbcc9d5fc	-0.024638169
249	0x3c9b925a	0.018990684
250	0xbb97702b	-0.0046215258
251	0x3ca90629	0.02063282
252	0xbb025555	-0.0019887288
253	0xbccb2c3c	-0.024801366
254	0x3caad1ab	0.02085193
255	0xbd028c30	-0.031871974

fc1.bias f4 [100]
0	0xbbd7c606	-0.0065848855
1	0xbcc130e7	-0.023582889
2	0xbce6e68f	-0.02818611
3	0xbcf291b2	-0.029610489
4	0xbc7dc88b	-0.015489708
5	0xbd270780	-0.040778637
6	0xbd421c67	-0.047390368
7	0xbcc66121	-0.024216237
8	0xbcfa0641	-0.03052056
9	0xbb0f2276	-0.0021840609
10	0xbc95bb2c	-0.018277727
11	0x3d15d8b9	0.036583636
12	0x3afb2503	0.0019160811
13	0x3d161d8b	0.036649268
14	0x3ced7527	0.028986527
15	0x3c1f4d0d	0.00972296
16	0xbcb30c4b	-0.021856448
17	0x3c34f327	0.0110443
18	0x3d1e880a	0.038703956
19	0xbca0450c	-0.019564174
20	0x3c5ff2ba	0.01366871
21	0xbccf3fd4	-0.02529899
22	0x3d601dae	0.054715805
23	0xbcf69ee8	-0.03010507
24	0xbc636392	-0.01387872
25	0x3cbc4897	0.022983832
26	0xbbbc40b1	-0.0057450165
27	0x3bdb7209	0.0066969437
28	0x3b2b26cc	0.0026115654
29	0x3d0263d8	0.0318335
30	0xbbdbced8	-0.0067080073
31	0xbc483736	-0.012220195
32	0xbb36feb3	-0.0027922809
33	0xbc4f2198	-0.012642287
34	0xbbcb0934	-0.0061961655
35	0x3c2522dc	0.010079112
36	0x3c006506	0.007836586
37	0x3c15a393	0.009133237
38	0x3cb67f0d	0.02227738
39	0xbca1e402	-0.019762043
40	0xbcbf2efa	-0.02333783
41	0x3d419735	0.047263343
42	0xbb88688e	-0.0041628545
43	0x3d1fe891	0.039040152
44	0xbc8f918e	-0.01752546
45	0x3bdc9c45	0.006732496
46	0x3ca90078	0.020630106
47	0xbbfbb69e	-0.007681682
48	0x3ca48b61	0.020085992
49	0xbc6b3b44	-0.014357392
50	0x3c98b1f0	0.018639535
51	0x3d61487b	0.055000763
52	0xbb8551f2	-0.0040686065
53	0x3b02c9a8	0.0019956622
54	0xbc215ffe	-0.0098495465
55	0xb8eee02c	-0.000113904796
56	0xbd0f5926	-0.034997128
57	0x3b3aa061	0.002847694
58	0x3d08287f	0.033241745
59	0x3d8dbc05	0.069206275
60	0xbca2835c	-0.019838028
61	0xbc018aba	-0.00790661
62	0xbc952de4	-0.018210359
63	0x3d9d7afb	0.07689472
64	0xbc98a3e8	-0.018632844
65	0xbb95e474	-0.004574353
66	0xbc96c46d	-0.01840421
67	0x3d169d10	0.03677088
68	0xbadf95a7	-0.001705815
69	0xbd039f44	-0.03213431
70	0x3b5a1373	0.0033275753
71	0x3d18d302	0.037310608
72	0x3c7f7b3b	0.015593345
73	0xbcf9b092	-0.030479703
74	0x3c861a7d	0.016370052
75	0x3c299a40	0.0103517175
76	0x3c9d369d	0.01919108
77	0xbce204ff	-0.027590273
78	0x3cadcba4	0.021215267
79	0x3c7dde9a	0.015494967
80	0xbcfad048	-0.030616894
81	0x3d006463	0.031345736
82	0xbcb4fd03	-0.022093302
83	0xbd308c56	-0.043102585
84	0xbcb1aa5b	-0.021687677
85	0xba5233ba	-0.0008018572
86	0xbc1a4060	-0.009414762
87	0xbc385fcb	-0.011253308
88	0xbbe91264	-0.007112788
89	0x3c78fee0	0.015197486
90	0x3d27c67b	0.04096077
91	0xbcb36bf0	-0.021902055
92	0xbd249e8a	-0.040190257
93	0x3c88337a	0.016626108
94	0x3c934054	0.01797501
95	0x3c5ee85b	0.013605203
96	0xbd456739	-0.048194144
97	0x3c9cbd59	0.019133257
98	0xbbea712b	-0.007154604
99	0x3be92dcc	0.007116055

fc2.weight f4 [10, 100]
0	0x3d84118c	0.06448659
1	0x3e0b38fc	0.13595957
2	0xbddcdf9c	-0.107848376
3	0xbd3c07e1	-0.04590595
4	0xbd615820	-0.055015683
5	0x3db8541d	0.09000418
6	0xbb87f768	-0.004149366
7	0x3dbaa9b2	0.09114398
8	0x3ce5d830	0.028057188
9	0x3c31a7a6	0.010843193
10	0xbb8b4c9b	-0.0042510754
11	0xbd96aabc	-0.07356784
12	0x3dbccd64	0.09218863
13	0x3bd392bd	0.0064567016
14	0xbd7bf403	-0.061512005
15	0x3cb9366f	0.022608964
16	0xbda2413a	-0.07922597
17	0x3dcdb76f	0.10044753
18	0xbdf94ea6	-0.12173204
19	0x3dcb1ced	0.099176265
20	0xbc0bbd01	-0.008528949
21	0xbd197409	-0.037464175
22	0xbe22b5f7	-0.15889727
23	0x3dafd25d	0.085850455
24	0x3dbe50b7	0.09292739
25	0xbc257fa3	-0.010101232
26	0xbdec1817	-0.11528032
27	0x3d955115	0.07290856
28	0x3de83ca8	0.11339694
29	0xbd81ec84	-0.0634394
30	0xbdbf3cb9	-0.09337754
31	0xbdb55b4d	-0.08855305
32	0x3c495c95	0.01229014
33	0xbda30595	-0.07960049
34	0xbcb1eecb	-0.02172031
35	0xbd57090d	-0.052498866
36	0x3d6efcfe	0.05834674
37	0x3e35b8da	0.17746297
38	0xbcac2767	-0.021014882
39	0xbcad8752	-0.02118269
40	0xbcaf5142	-0.021401051
41	0xbdba2f03	-0.09090998
42	0x3e080919	0.1328472
43	0xbe5a07f2	-0.21292093
44	0x3d9c7154	0.07638803
45	0x3d408607	0.04700282
46	0x3dd1e527	0.102487855
47	0x3dbff834	0.09373513
48	0x3df4ab82	0.11946775
49	0x3c5af964	0.013365123
50	0x3e2db9b3	0.1696537
51	0x3cc97a64	0.024594493
52	0xbc8b1856	-0.016979378
53	0xbe11bfd8	-0.14233339
54	0x3c8eeafc	0.017446034
55	0x3d0ae7ef	0.033912595
56	0xbdcd1d9a	-0.10015412
57	0x3e423a03	0.18967442
58	0xb837465a	-4.369612e-05
59	0x3db5a09a	0.08868523
60	0xbd29c614	-0.041448668
61	0x3de0605e	0.109558806
62	0xbda86eeb	-0.08224281
63	0xbcb9e2b5	-0.02269111
64	0xbde40650	-0.111340165
65	0x3d342b8b	0.04398684
66	0xbcf7492a	-0.030186255
67	0xbbe43e41	-0.006965429
68	0xbc08ec3d	-0.008357105
69	0x3c577844	0.013151232
70	0x3e043a6a	0.12912908
71	0xbd4beb0d	-0.04978471
72	0xbe088142	-0.13330558
73	0xbd70aaad	-0.05875652
74	0x3d19c377	0.037539925
75	0x3d859cab	0.06524023
76	0x3e03324e	0.12812158
77	0xbc2e02a3	-0.010620746
78	0xbe16fbc3	-0.14744477
79	0xbd7c37a2	-0.061576493
80	0xbd704e1b	-0.058668237
81	0xbdd71014	-0.105011135
82	0x3d9a623c	0.07538268
83	0xbd9124cc	-0.070870966
84	0xbd8ceb47	-0.06880813
85	0x3b8c455a	0.0042807283
86	0x3d51dbb5	0.05123492
87	0xbd36da19	-0.044641588
88	0xbcc9aeb8	-0.024619445
89	0xbd4a08e5	-0.04932489
90	0xbdd33d54	-0.10314432
91	0xbd74be6e	-0.05975192
92	0xbbc95d5f	-0.006145164
93	0xbe24e1c9	-0.16101755
94	0xbdf6f93e	-0.12059258
95	0xbd8bbee3	-0.06823518
96	0xbde6ee94	-0.11275974
97	0xbcd68a43	-0.026188975
98	0x3d4d5a66	0.05013504
99	0xbd1e331f	-0.03862297
100	0x3bf97006	0.007612231
101	0xbdb11458	-0.086464584
102	0x3d135b3f	0.03597569
103	0x3de11b5d	0.10991547
104	0x3bad39d1	0.0052864333
105	0x3cb2aaa2	0.02180988
106	0xbc78b10b	-0.015178929
107	0x3cb82910	0.022480518
108	0xbd869e7c	-0.06573197
109	0xbe345d0f	-0.17613624
110	0xbd5c51f2	-0.053789087
111	0xbd954739	-0.07288975
112	0xbca1e0af	-0.019760458
113	0x3e705e3c	0.23473448
114	0x3d3d0f10	0.046156943
115	0x3d105d55	0.03524526
116	0xbcdf8ba2	-0.027288262
117	0x3cc8bc78	0.024503931
118	0x3e3d663b	0.18496029
119	0xbd2bfdcf	-0.041990098
120	0x3d2917b7	0.04128238
121	0xbd02c253	-0.031923603
122	0x3e5c3a92	0.21506718
123	0xbd88cfe2	-0.066802755
124	0x3d9594d4	0.07303777
125	0xbc7c8a44	-0.0154138245
126	0xbce88efb	-0.02838849
127	0xbdef41ff	-0.1168251
128	0xbe43e065	-0.19128568
129	0x3e085ff1	0.13317849
130	0x3d4b1754	0.049582794
131	0xbd0ebb44	-0.03484656
132	0xbe2d28d0	-0.169101
133	0x3d185d5a	0.037198402
134	0xbd3b63e8	-0.045749575
135	0xbcc598c2	-0.024120692
136	0xbde34696	-0.110974476
137	0xbe7a90d3	-0.24469309
138	0x3d4c9e4c	0.04995565
139	0x3e09e2ce	0.13465425
140	0x3dd348e6	0.10316639
141	0xbdf35ac1	-0.11882544
142	0xbe3b6537	-0.18300329
143	0xbd852807	-0.06501775
144	0x3c2cfcbd	0.010558304
145	0x3d252fd6	0.040328823
146	0x3ced26bd	0.028949136
147	0xbd4dd7be	-0.050254576
148	0x3e47a241	0.19495489
149	0xbda40ed2	-0.08010639
150	0xbd89d435	-0.067299284
151	0x3e099f76	0.13439736
152	0x3c7b1a60	0.0153261125
153	0x3d97aafd	0.0740566
154	0x39e449a9	0.0004354243
155	0xbd5cf369	-0.05394307
156	0xbd9a6188	-0.07538134
157	0xbdc6d9cc	-0.0970951
158	0x3df4fc91	0.11962236
159	0x3e214125	0.15747507
160	0xbca34796	-0.019931596
161	0x3c7c1983	0.015386942
162	0x3dd36221	0.10321451
163	0x3dc06ced	0.09395776
164	0x3cdea230	0.027176946
165	0xbd044773	-0.0322947
166	0xbda2396c	-0.079211086
167	0xbdbfa844	-0.09358266
168	0x3c0ba1e5	0.008522485
169	0xbdb8d3f5	-0.090248026
170	0xbdd756cf	-0.10514604
171	0x3d4b552d	0.049641777
172	0x3d8e9a42	0.06963016
173	0x3d02a15b	0.03189216
174	0x3e1123f2	0.14173868
175	0xbd72e7ec	-0.05930321
176	0x379f7292	1.9007628e-05
177	0x3c7c894e	0.015413595
178	0xbcab5d99	-0.020918654
179	0xbdb5ee2b	-0.088833176
180	0x3df4f053	0.11959901
181	0x3e057a85	0.13035019
182	0xbe87b613	-0.265061
183	0xbd8dba2a	-0.069202736
184	0x3d5b0de1	0.053480033
185	0xbc3c4de5	-0.011493181
186	0x3cacca91	0.021092685
187	0x3d87cf5d	0.06631348
188	0x3dd589e6	0.10426693
189	0xbd7fb214	-0.062425688
190	0x3cdbdc32	0.026838396
191	0x3a77c9f9	0.00094523985
192	0xbdd6e875	-0.104935564
193	0x3d89d463	0.06729963
194	0xbd81aa8a	-0.06331356
195	0xbca32be3	-0.019918388
196	0xbdb24456	-0.0870444
197	0xbdb159ea	-0.08659728
198	0xbd0a2527	-0.033726837
199	0xbd035bab	-0.032069843
200	0x3cab5d02	0.020918373
201	0x3d9f90ca	0.07791288
202	0xbdd169f5	-0.10225288
203	0x3dc6c96a	0.097063854
204	0x3b008c05	0.0019614708
205	0x3c17cd3f	0.009265243
206	0xbd5358d9	-0.051598404
207	0x3c3a3a49	0.011366435
208	0x3c03cd57	0.008044562
209	0x3ab8bb03	0.001409382
210	0xbdcab56c	-0.09897885
211	0xbe089a8e	-0.13340208
212	0x3cecadf7	0.028891547
213	0xbd1bcea1	-0.038038854
214	0xbd404121	-0.04693711
215	0x3de527f8	0.11189264
216	0x3d815161	0.0631435
217	0x3d1cbf16	0.03826817
218	0xbde81a9c	-0.113332
219	0x3dfaba89	0.1224261
220	0xbda5338b	-0.08066472
221	0xbcdf7715	-0.027278462
222	0x3d257c87	0.04040196
223	0x3cd26b30	0.025685877
224	0xbdcf2738	-0.10114902
225	0x3cdc1799	0.026866721
226	0x3df01c44	0.11724141
227	0x3e384829	0.17996277
228	0xbd7e63cb	-0.06210689
229	0x3e067e71	0.13134171
230	0x3d4cd424	0.050007
231	0xbd8ab4b4	-0.06772748
232	0xbe3abc42	-0.18235877
233	0xbbb8fbe9	-0.0056452644
234	0xbdadca48	-0.08485848
235	0x3d39686c	0.0452656
236	0xbd036b35	-0.032084662
237	0xbcb5b241	-0.022179725
238	0x3dae282c	0.08503756
239	0x3e172869	0.14761509
240	0xbc9c53eb	-0.019082984
241	0x3c91dcce	0.017805483
242	0x3e056cdd	0.1302981
243	0xbd2279c2	-0.0396669
244	0x3cfb0a18	0.030644462
245	0xbdaefa85	-0.085438766
246	0x3d14dc03	0.036342632
247	0x3d20beba	0.03924439
248	0x3afbf190	0.0019221772
249	0x3d1270a5	0.035751957
250	0x3e22f226	0.15912685
251	0x3deb3899	0.114854045
252	0xbdc8ecbe	-0.0981078
253	0x3db88a9e	0.09010814
254	0xbbc8e168	-0.006130386
255	0x3e229cd9	0.15880145

fc2.bias f4 [10]
0	0xbe0827f7	-0.13296495
1	0x3e5deb19	0.21671714
2	0xbdd88f44	-0.10574201
3	0xbc8ef577	-0.017451031
4	0xbc12894e	-0.008943869
5	0x3dd885df	0.10572409
6	0xbd4322bb	-0.047640543
7	0x3c95e361	0.0182969
8	0xbe34fdb9	-0.17674913
9	0xbc2aee5d	-0.010432807
